dqn.pth (torch, 8287 bytes, 6 tensors)

fc1.weight f4 [32, 8]
0.7578993 -0.30921328 0.5872277 -0.26936457 0.5290269 -0.060827255 0.46392724 -1.0984874
0.24942504 -0.5826982 -0.16038948 -0.12305115 -0.71793264 -0.10212136 0.4525291 0.03918703
1.5762247 -0.025651963 0.80071896 -0.3483703 -1.1240067 -0.072652146 -0.021508105 -0.07804159
-0.06189123 0.20462283 0.25367653 -0.626139 -0.42597252 0.29789653 -0.2096941 0.11403857
0.8265658 0.16504928 0.5576408 0.4007223 -0.57758594 -0.21271731 0.0537431 0.016678777
0.6098599 -0.1587044 0.29601315 -1.0896506 -0.0057827616 0.28923953 0.00428163 -0.41332644
0.5934821 0.5194759 0.6378169 -0.054039124 1.7377877 0.35874644 -0.8484504 -0.63279945
-0.054519244 -0.74832314 1.3816653 0.57726276 0.7880747 0.51637733 0.7768945 0.21498409
-0.686932 -0.032677416 -0.52169317 -0.568667 0.29915923 -0.17487521 -0.20103595 0.1438387
-1.1217301 -1.0486276 -0.42871863 -0.40190873 0.6436907 0.05134141 0.32349524 0.01690662
-0.023822002 -0.23218854 0.9897807 -1.2490593 0.0038262263 -0.21306443 0.24351402 0.06203046
-0.21925564 0.51575285 0.08032407 -1.3635306 0.24422559 -0.21520339 -1.040903 -0.24657552
0.047949854 -1.338968 0.885917 2.7741814 -1.083494 0.07777452 0.5321667 0.275982
0.2839439 -0.16058901 0.46350184 -1.0173923 0.017313685 -0.15929517 -0.4325344 0.26611248
-0.12633994 0.1195191 0.2596127 0.52025604 0.32162723 -0.7119098 -0.7423417 0.11814659
0.39292344 0.051337577 1.1198165 0.013797926 -0.9484255 0.06043952 0.47098932 -0.076163076
-0.3101556 0.37933627 -0.023898728 -0.612922 -0.12771256 0.047362417 0.261615 0.65195066
-0.09598274 0.024258489 -0.39957097 0.006358965 -1.4105834 -1.5549238 -0.60420007 0.5963058
0.14745261 -0.6773657 -0.55215824 0.7960788 0.68981606 0.02241863 0.31292686 -0.03832095
0.21353355 0.46378088 -0.19055082 -0.7120899 -1.4107187 0.078906536 -0.10009875 -0.6592669
-0.53884333 0.3026013 -0.23584028 -0.113389246 0.92701274 0.8196068 0.4079598 -0.30559394
0.06746394 0.570534 0.36266333 -0.009362259 1.2220094 0.10194253 -0.5059385 0.22682881
0.18908074 -0.19137642 0.042843997 -0.25687385 -0.038013592 0.21955664 0.4224052 -0.07897885
0.22123584 0.45558837 -0.44193506 -0.3262289 -0.16324487 -0.25507027 -0.78550893 -0.067167975
-0.65255004 0.24555562 -0.4330535 -0.57788837 0.442574 0.09783336 0.42687252 -0.24116628
0.4909381 0.20573817 -0.29786193 -0.15126097 0.38637832 -0.46569484 -0.31976435 0.20905562
-0.5930208 0.2022184 -0.5111405 0.24322571 1.072108 0.5007645 0.021722076 -0.2892067
0.5559067 -0.5594395 -0.23775952 -0.44219816 -0.37616527 -0.72596353 0.2188678 0.89328635
-0.1214455 -0.20096686 -0.7912749 -0.23280305 0.7389944 -0.22303303 -0.11461828 0.4458893
0.13709024 -0.4959215 -0.25428158 -0.6206904 0.44995454 -0.046611268 0.28244582 0.44253105
0.4893767 -1.700578 0.13626023 -0.40838733 0.12693104 0.05400359 -0.39501065 0.21129401
-1.1668878 0.06521803 1.0098644 0.05675599 0.32567924 0.35521707 -0.48278704 -0.8107462
00000000: b005 423f 3451 9ebe 8e54 163f 27ea 89be
00000010: 4f6e 073f 0026 79bd df87 ed3e 3c9b 8cbf
00000020: 4769 7f3e b62b 15bf 243d 24be 3e02 fcbd
00000030: 6fca 37bf 0125 d1bd e5b1 e73e 9482 203d
00000040: bbc1 c93f 1124 d2bc ebfb 4c3f 985d b2be
00000050: 74df 8fbf a6ca 94bd c431 b0bc 45d4 9fbd
00000060: a981 7dbd a688 513e e4e1 813e a54a 20bf
00000070: 1219 dabe e585 983e 0dba 56be 0e8d e93d
00000080: d199 533f ae02 293e 8cc1 0e3f 792b cd3e
00000090: acdc 13bf 91d2 59be ba21 5c3d eea1 883c
000000a0: c71f 1c3f 6883 22be 098f 973e ac79 8bbf
000000b0: 527d bdbb 3417 943e ea4c 8c3b 869f d3be
000000c0: 71ee 173f 5ffc 043f f847 233f 2158 5dbd
000000d0: d46f de3f 9dad b73e 0c34 59bf 25ff 21bf
000000e0: 924f 5fbd 1b92 3fbf 69da b03f 7ec7 133f
000000f0: 43bf 493f 4e31 043f 8fe2 463f ca24 5c3e
00000100: c7da 2fbf c1d8 05bd af8d 05bf 2994 11bf
00000110: 662b 993e 7d12 33be 5edc 4dbe 744a 133e
00000120: da94 8fbf 6e39 86bf 0281 dbbe fbc6 cdbe
00000130: eac8 243f 5f4b 523d 2ba1 a53e c07f 8a3c
00000140: 5c26 c3bc d5c2 6dbe 4562 7d3f 2de1 9fbf
00000150: 6dc1 7a3b 902d 5abe bd5b 793e a713 7e3d
00000160: 8d84 60be 6108 043f f280 a43d 2c88 aebf
00000170: 4616 7a3e 475e 5cbe 4f3c 85bf 4b7e 7cbe
00000180: 1167 443d 4e63 abbf 75cb 623f 308c 3140
00000190: eeaf 8abf 3f48 9f3d 143c 083f 834d 8d3e
000001a0: 1861 913e 7271 24be 1d50 ed3e e939 82bf
000001b0: 6ed5 8d3c 461e 23be 2675 ddbe e53f 883e
000001c0: 425f 01be 6ec6 f43d f5eb 843e 802f 053f
000001d0: 53ac a43e b83f 36bf 1b0a 3ebf d7f6 f13d
000001e0: 432d c93e 5a47 523d 2656 8f3f b210 623c
000001f0: 03cc 72bf 6e8f 773d 8325 f13e 63fb 9bbd
00000200: b7cc 9ebe 5d38 c23e 44c7 c3bc 75e8 1cbf
00000210: 15c7 02be 18ff 413d 67f2 853e 3de6 263f
00000220: 9992 c4bd bdb9 c63c 9194 ccbe dd5e d03b
00000230: ff8d b4bf be07 c7bf dbac 1abf 7fa7 183f
00000240: d1fd 163e d767 2dbf 3e5a 0dbf d2cb 4b3f
00000250: c997 303f 46a7 b73c f337 a03e 6ef6 1cbd
00000260: 8aa8 5a3e b074 ed3e c11f 43be 864b 36bf
00000270: 6e92 b4bf c099 a13d 9300 cdbd b7c5 28bf
00000280: a3f1 09bf 8fee 9a3e 1d80 71be 9f38 e8bd
00000290: b550 6d3f c0d1 513f 1be0 d03e cf76 9cbe
000002a0: 892a 8a3d 840e 123f 02af b93e 2964 19bc
000002b0: ce6a 9c3f 3fc7 d03d 2f85 01bf d045 683e
000002c0: 629e 413e 2ef8 43be 307d 2f3d f884 83be
000002d0: 24b4 1bbd 75d3 603e 7f45 d83e aabf a1bd
000002e0: a68b 623e e142 e93e 5045 e2be 7907 a7be
000002f0: aa29 27be 9298 82be 1d17 49bf 5d8f 89bd
00000300: 850d 27bf ef72 7b3e 30b9 ddbe 7ef0 13bf
00000310: 0f99 e23e db5c c83d 098f da3e 4bf4 76be
00000320: 3d5c fb3e 07ad 523e 5c81 98be 28e4 1abe
00000330: 61d3 c53e 8e6f eebe 27b8 a3be ad12 563e
00000340: 36d0 17bf 5712 4f3e 1bda 02bf 2910 793e
00000350: d63a 893f 1a32 003f 7ff2 b13c e712 94be
00000360: e74f 0e3f 6d37 0fbf 3b77 73be cc67 e2be
00000370: bc98 c0be bfd8 39bf e11e 603e 6aae 643f
00000380: 6bb8 f8bd 42ca 4dbe fe90 4abf ec63 6ebe
00000390: bd2e 3d3f c562 64be fdbc eabd 9a4b e43e
000003a0: 6261 0c3e 6ce9 fdbe 3231 82be 91e5 1ebf
000003b0: 7160 e63e 75eb 3ebd bd9c 903e 6e93 e23e
000003c0: 958f fa3e 8aac d9bf cd87 0b3e 2518 d1be
000003d0: 36fa 013e de32 5d3d d63e cabe 755d 583e
000003e0: 945c 95bf 0891 853d 3d43 813f f878 683d
000003f0: 6ebf a63e 03df b53e dd2f f7be 108d 4fbf

fc1.bias f4 [32]
0.23649427 0.80456555 0.1378557 0.31417266 0.17435841 0.14117633 0.56345433 0.06435718
0.42554206 -0.46363133 -0.04904837 0.3626849 0.038426716 0.24275784 0.45865348 0.60480934
0.19464183 0.01481301 0.34120378 0.36761904 -0.088494584 -0.33818966 0.36107385 0.27880925
-0.028464932 0.30856144 0.35208794 -0.075265445 0.26992488 0.7039282 0.4569332 -0.22272721
00000000: 8e2b 723e 02f8 4d3f 0b2a 0d3e 3ddb a03e
00000010: 038b 323e 8790 103e 8b3e 103f b2cd 833d
00000020: a6e0 d93e 1661 edbe f2e6 48bd d6b1 b93e
00000030: 5565 1d3d 8395 783e a1d4 ea3e c9d4 1a3f
00000040: 3050 473e 44b2 723c 43b2 ae3e 9038 bc3e
00000050: a63c b5bd 3227 adbe acde b83e 16c0 8e3e
00000060: 4a2f e9bc c4fb 9d3e df44 b43e c524 9abd
00000070: 9833 8a3e a334 343f 26f3 e93e 9a12 64be

fc2.weight f4 [32, 32]
0.562001 0.1804112 -0.018719878 -0.19055645 -0.11470579 0.8984285 0.11765133 0.32953563
0.024188867 -0.23209704 0.5425573 0.01876064 -0.7906032 -0.4993315 -0.37714806 0.15071836
0.38863206 0.1583211 -0.5650172 0.37146342 0.19157664 0.27672416 0.1728561 -0.30093142
0.34138525 0.3316994 0.30100748 -0.12243916 -0.2434685 0.37235823 0.2177832 -0.039504323
0.07200573 -0.6671522 0.8803844 -0.075334996 0.7222593 0.5069492 -0.35298595 -1.1246669
0.114205934 1.6965712 0.44986105 0.017951107 -0.64843297 -0.0034497597 -0.07113933 -0.24256077
-0.12149206 0.2973896 -0.30592245 -0.46113917 0.7041939 -0.46311164 0.42944163 -0.60497344
0.17172402 0.13581097 0.0023822077 0.32558352 0.15306047 -0.65591586 0.5426736 -1.4500376
0.18444757 -0.47373304 0.47660193 0.028828196 0.50490004 0.8167565 0.30195805 -1.5194864
0.5123333 0.447946 -0.079765186 0.47124758 -0.1963678 -0.28169975 0.2426791 0.09853564
-0.053633302 0.39108095 -0.36376727 -0.17930453 0.39589977 0.11814983 0.19764294 -0.5492088
0.19394113 0.32571927 0.22413902 -0.06285246 0.020635214 -0.68924636 0.19628926 -0.0835239
0.1477522 -0.38365528 0.4913675 0.08483454 0.4546092 0.61513156 0.18418936 -0.8130611
0.4870401 1.6895149 0.41048512 0.41766167 -1.4257035 -0.13643427 0.22115906 -0.13451847
0.3540412 0.22014573 -0.19195081 -0.40362966 0.8815465 -0.033271156 0.32555464 -0.7657733
0.22901495 0.49417344 0.4404397 -0.2899501 0.35787332 -0.2610041 0.49917173 -0.37861824
-1.1253595 0.40136343 0.3315895 0.08648376 -0.42516884 0.5449833 0.44462377 0.36724913
0.00011564991 -1.00401 -0.9635835 0.0046549416 0.3015928 0.47113302 0.080654524 0.18644233
0.25183073 -0.10649842 -0.05336488 0.8437417 -0.08134122 0.47456235 -0.33436948 1.2304188
-0.07309497 -0.086748876 -0.41006723 -0.0064002248 -0.18001877 0.115043774 -0.34600955 0.88776755
-1.1073653 -0.23527485 -0.35680547 0.08784266 -0.1394111 0.18029286 0.30041227 -0.28549507
0.20749511 0.10218883 1.0669482 0.32403117 0.77811176 0.1340892 -0.2507316 -0.18419291
0.13286805 -0.7265762 0.25564322 0.6664399 0.5464759 0.55777186 -0.38469186 1.476944
-0.15373608 -0.0489113 -0.4794615 -0.7876594 0.310185 -0.1476489 -0.2823971 0.2672347
-1.1184647 -0.28957847 -0.3780065 0.26541898 0.41031063 -0.24602051 0.11267481 -0.5879109
0.5647024 0.8708536 -0.3348225 0.65955776 -0.74219394 -0.7810783 0.13318689 -0.18640752
0.6474766 0.017260779 0.0655754 -0.18465242 0.48429415 0.3284963 0.18404569 -0.38321313
0.41318375 0.49060652 0.5448098 -0.6785192 0.20175786 -0.44247735 -0.5207777 -0.42366993
-0.10969207 -0.38953006 0.5546915 0.095994025 0.058429137 0.6518041 -0.088337205 -1.0082552
0.47292492 0.878023 -0.32519105 0.4349947 -0.44767135 -0.4265797 0.014071548 -0.030461064
0.5343478 0.30039418 -0.3290969 -0.11168115 0.24691488 0.120440334 0.38559714 -0.40941006
0.538636 0.32542977 0.90644133 -0.06603103 0.39434043 -0.5972416 0.24122147 -0.23360671
00000000: 4cdf 0f3f b7bd 383e 6e5a 99bc 3b21 43be
00000010: dfea eabd 69ff 653f 2ef3 f03d e5b8 a83e
00000020: bb27 c63c d9aa 6dbe 09e5 0a3f eaaf 993c
00000030: f964 4abf 61a8 ffbe 8d19 c1be ea55 1a3e
00000040: c8fa c63e ed1e 223e f8a4 10bf 7430 be3e
00000050: ab2c 443e caae 8d3e 3101 313e af13 9abe
00000060: 0cca ae3e 81d4 a93e a71d 9a3e 62c1 fabd
00000070: ce4f 79be bda5 be3e 8f02 5f3e 49cf 21bd
00000080: bd77 933d 7dca 2abf df60 613f 3c49 9abd
00000090: fce5 383f 6cc7 013f 93ba b4be 16f5 8fbf
000000a0: cde4 e93d 3f29 d93f 3054 e63e 330e 933c
000000b0: b4ff 25bf 5d15 62bb 7fb1 91bd da61 78be
000000c0: d4d0 f8bd 7343 983e dea1 9cbe 6f1a ecbe
000000d0: 0d46 343f f81c edbe c6df db3e 8adf 1abf
000000e0: 6cd8 2f3e 0812 0b3e d01e 1c3b e2b2 a63e
000000f0: e2bb 1c3e 1aea 27bf a8ec 0a3f d59a b9bf
00000100: d3df 3c3e 238d f2be 2b05 f43e 1c29 ec3c
00000110: 2141 013f f416 513f 3f9a 9a3e 887e c2bf
00000120: 4628 033f 2e59 e53e ee5b a3bd 5d47 f13e
00000130: a414 49be f33a 90be df80 783e 0ecd c93d
00000140: 98ae 5bbd c33b c83e b43f babe 9b9b 37be
00000150: 60b3 ca3e 8af8 f13d e962 4a3e f398 0cbf
00000160: 8198 463e adc4 a63e b384 653e cab8 80bd
00000170: 2e0b a93c 7372 30bf 0d00 493e 940e abbd
00000180: 5a4c 173e 776e c4be 8594 fb3e bbbd ad3d
00000190: 89c2 e83e 4379 1d3f 239c 3c3e c624 50bf
000001a0: 525d f93e 0642 d83f 1b2b d23e c0d7 d53e
000001b0: 747d b6bf 6db5 0bbe 8577 623e 36bf 09be
000001c0: e344 b53e e26d 613e c18e 44be 8ca8 cebe
000001d0: 08ad 613f 5647 08bd 19af a63e b809 44bf
000001e0: e582 6a3e 4d04 fd3e 5081 e13e 5774 94be
000001f0: 2c3b b73e 54a2 85be 7093 ff3e 40da c1be
00000200: c80b 90bf 827f cd3e 19c6 a93e 661e b13d
00000210: bbaf d9be 0784 0b3f baa5 e33e 1408 bc3e
00000220: 1389 f238 6683 80bf 69ad 76bf 7b88 983b
00000230: 5f6a 9a3e 5938 f13e 332e a53d bdea 3e3e
00000240: f5ef 803e d81b dabd 2295 5abd 75ff 573f
00000250: 3a96 a6bd d6f9 f23e 7a32 abbe 5d7e 9d3f
00000260: d1b2 95bd 65a9 b1bd 55f4 d1be fab8 d1bb
00000270: d756 38be 129c eb3d 2a28 b1be bc44 633f
00000280: 25be 8dbf e4eb 70be 35af b6be dae6 b33d
00000290: c9c1 0ebe b19e 383e a3cf 993e 692c 92be
000002a0: 9979 543e 6148 d13d c291 883f 6ae7 a53e
000002b0: 5532 473f ae4e 093e e45f 80be 119d 3cbe
000002c0: 900e 083e e600 3abf abe3 823e ce9b 2a3f
000002d0: d8e5 0b3f 23ca 0e3f 55f6 c4be 800c bd3f
000002e0: fe6c 1dbe 3757 48bd fa7b f5be 0ca4 49bf
000002f0: 91d0 9e3e 4631 17be 5a96 90be fdd2 883e
00000300: da29 8fbf a143 94be 118a c1be ffe4 873e
00000310: 3c14 d23e cdec 7bbe 0dc2 e63d 5481 16bf
00000320: 5690 103f 43f0 5e3f db6d abbe c7d8 283f
00000330: 6c00 3ebf bff4 47bf 2562 083e 9de1 3ebe
00000340: 07c1 253f 7a66 8d3c 654c 863d 8615 3dbe
00000350: 67f5 f73e ab30 a83e 7976 3c3e 8334 c4be
00000360: d28c d33e c730 fb3e a878 0b3f 6fb3 2dbf
00000370: 9d99 4e3e 648c e2be b051 05bf 44eb d8be
00000380: 3ca6 e0bd 7c70 c7be 4300 0e3f 8498 c43d
00000390: 6453 6f3d a2dc 263f 23ea b4bd 820e 81bf
000003a0: 3723 f23e 1ec6 603f 717f a6be a0b7 de3e
000003b0: 2e35 e5be a868 dabe 5a8c 663c 7b89 f9bc
000003c0: 04cb 083f 44cd 993e 647f a8be 16b9 e4bd
000003d0: 41d7 7c3e 6ca9 f63d fd6c c53e 329e d1be
000003e0: 0de4 093f bb9e a63e 8a0c 683f 473b 87bd
000003f0: fde6 c93e d3e4 18bf c302 773e 9936 6fbe

fc2.bias f4 [32]
0.031429064 -0.17498414 -0.13351902 0.092195645 0.47171858 0.29624757 0.21505503 -0.055697396
-0.11947632 0.111230634 0.65175164 0.27683452 -0.19376817 0.064330325 -0.5028239 0.2116795
-0.056522436 0.19585434 0.119385526 0.5524982 0.1480539 0.10478031 -0.27451888 -0.090370566
-0.17213348 0.24567442 -0.11564763 -0.16297407 -0.03758654 0.022099657 -0.55152845 -0.49517548
00000000: c3bb 003d 0b2f 33be 36b9 08be 12d1 bc3d
00000010: 1985 f13e c3ad 973e 6337 5c3e f422 64bd
00000020: 00b0 f4bd e3cc e33d 32d9 263f 41bd 8d3e
00000030: 2a6b 46be 9ebf 833d 11b9 00bf 83c2 583e
00000040: 1284 67bd 0a8e 483e 6680 f43d 8670 0d3f
00000050: 719b 173e 0f97 d63d bd8d 8cbe 3414 b9bd
00000060: c243 30be 1392 7b3e aad8 ecbd ade2 26be
00000070: 58f4 19bd 570a b53c f830 0dbf a487 fdbe

fc3.weight f4 [4, 32]
-0.23795749 -0.2486433 -0.2814857 -0.936263 1.0384892 1.182 -0.72972554 -0.37458557
0.13998647 -0.067413636 -0.4892773 0.50537807 -0.26025555 -0.7000912 -0.9751181 0.8050192
1.1339546 1.0105468 0.6847529 0.6726871 1.7839447 1.4939593 -0.73363316 -0.040573906
0.0905257 0.9933982 -0.3171084 -0.6201557 -0.60329056 0.09088804 0.49017635 -0.08000404
-0.40802395 -0.38326633 -0.5123661 -0.5698042 1.3047785 1.381554 -0.8724057 -0.6863873
-0.089683406 -0.08927935 -0.53504616 0.37706232 -1.0151823 -0.64787257 -0.7093936 0.66189766
1.2695671 0.8906283 0.43446818 0.81105137 1.6933249 0.8044749 -0.93094265 0.09291906
-0.11690724 0.8522087 -0.32897198 -0.7879318 -0.74943733 0.26862925 0.20882282 -0.16685139
0.512093 -1.2304789 -0.47368145 -0.641714 0.8438737 0.89374566 -0.38519353 -0.1600871
0.07609488 -0.7596554 -0.6563814 0.19474305 -1.0293847 -0.31888562 -0.79222316 0.7815268
1.0719731 1.3521869 0.64480346 0.6357982 1.885669 1.4839233 -0.55809116 -0.0723799
0.06354476 1.1277647 -0.027609276 -0.9461123 0.17183404 0.3464411 0.07721173 -0.13605814
-0.21056946 0.035319906 -0.26479515 -0.7500439 0.80751634 1.2537216 -0.5855358 -0.4369256
-0.1456189 -0.19721761 -0.21533555 -0.1675519 -0.74764 -1.7220381 -1.0437962 0.66816103
1.254937 1.0521097 0.8618364 1.3865592 1.796795 1.6636375 -0.71455413 0.042233948
0.014059689 1.3545536 -0.4079121 -0.3345093 -0.14920068 -0.45283714 0.38529304 0.0053781187
00000000: 21ab 73be 599c 7ebe e51e 90be efae 6fbf
00000010: 37ed 843f c74b 973f 4bcf 3abf aec9 bfbe
00000020: 9d58 0f3e 2910 8abd 8e82 fabe 7560 013f
00000030: 3740 85be 2d39 33bf 57a1 79bf bd15 4e3f
00000040: 6d25 913f 9959 813f f74b 2f3f 3935 2c3f
00000050: 4d58 e43f 0f3a bf3f 62cf 3bbf d330 26bd
00000060: 8a65 b93d 584f 7e3f 085c a2be 86c2 1ebf
00000070: 4071 1abf 8223 ba3d 65f8 fa3e 28d9 a3bd
00000080: 84e8 d0be 7c3b c4be 6d2a 03bf b0de 11bf
00000090: fb02 a73f c3d6 b03f fb55 5fbf 14b7 2fbf
000000a0: efab b7bd 18d8 b6bd c9f8 08bf 500e c13e
000000b0: 7ef1 81bf fada 25bf d29a 35bf 2072 293f
000000c0: 2d81 a23f 3700 643f 9d72 de3e 10a1 4f3f
000000d0: dfbe d83f 11f2 4d3f 4252 6ebf 594c be3d
000000e0: 106d efbd 592a 5a3f 046f a8be e6b5 49bf
000000f0: 20db 3fbf c689 893e a6d5 553e 17db 2abe
00000100: 8718 033f 5580 9dbf 6086 f2be 5e47 24bf
00000110: 1b08 583f 84cc 643f 1638 c5be dfed 23be
00000120: a2d7 9b3d c778 42bf 9d08 28bf b96a 473e
00000130: e1c2 83bf fa44 a3be 23cf 4abf 2412 483f
00000140: 6a36 893f 7614 ad3f d711 253f acc3 223f
00000150: 9a5d f13f 33f1 bd3f 10df 0ebf ea3b 94bd
00000160: c123 823d 985a 903f d92c e2bc 6a34 72bf
00000170: 43f5 2f3e ba60 b13e 2f21 9e3d d352 0bbe
00000180: 859f 57be 9bab 103d 3b93 87be e102 40bf
00000190: 64b9 4e3f f379 a03f ade5 15bf b6b4 dfbe
000001a0: 1f1d 15be 6af3 49be ec80 5cbe ba92 2bbe
000001b0: 5665 3fbf bf6b dcbf 1d9b 85bf 9a0c 2b3f
000001c0: c7a1 a03f 88ab 863f 4fa1 5c3f c67a b13f
000001d0: 61fd e53f 13f2 d43f 05ed 36bf 81fd 2c3d
000001e0: 9c5a 663c 0362 ad3f dbd9 d0be ce44 abbe
000001f0: 10c8 18be 45da e7be 2145 c53e ee3a b03b

fc3.bias f4 [4]
0.24888536 0.37653938 -0.1889356 0.10391073
00000000: cedb 7e3e c5c9 c03e 5578 41be 26cf d43d
